[convolutional]
batch_normalize=1
filters=20
size=3
stride=1
pad=1
activation=relu

[convolutional]
batch_normalize=1
filters=23
size=3
stride=2
pad=1
activation=relu

[convolutional]
batch_normalize=1
filters=20
size=1
stride=1
pad=1
activation=relu

[convolutional]
batch_normalize=1
filters=23
size=3
stride=1
pad=1
activation=relu

[shortcut]
from=-3
activation=linear

[convolutional]
batch_normalize=1
filters=55
size=3
stride=2
pad=1
activation=relu

[convolutional]
batch_normalize=1
filters=20
size=1
stride=1
pad=1
activation=relu

[convolutional]
batch_normalize=1
filters=55
size=3
stride=1
pad=1
activation=relu

[shortcut]
from=-3
activation=linear

[convolutional]
batch_normalize=1
filters=26
size=1
stride=1
pad=1
activation=relu

[convolutional]
batch_normalize=1
filters=55
size=3
stride=1
pad=1
activation=relu

[shortcut]
from=-3
activation=linear

[convolutional]
batch_normalize=1
filters=80
size=3
stride=2
pad=1
activation=relu

[convolutional]
batch_normalize=1
filters=26
size=1
stride=1
pad=1
activation=relu

[convolutional]
batch_normalize=1
filters=80
size=3
stride=1
pad=1
activation=relu

[shortcut]
from=-3
activation=linear

[convolutional]
batch_normalize=1
filters=39
size=1
stride=1
pad=1
activation=relu

[convolutional]
batch_normalize=1
filters=80
size=3
stride=1
pad=1
activation=relu

[shortcut]
from=-3
activation=linear

[convolutional]
batch_normalize=1
filters=39
size=1
stride=1
pad=1
activation=relu

[convolutional]
batch_normalize=1
filters=80
size=3
stride=1
pad=1
activation=relu

[shortcut]
from=-3
activation=linear

[convolutional]
batch_normalize=1
filters=39
size=1
stride=1
pad=1
activation=relu

[convolutional]
batch_normalize=1
filters=80
size=3
stride=1
pad=1
activation=relu

[shortcut]
from=-3
activation=linear

[convolutional]
batch_normalize=1
filters=39
size=1
stride=1
pad=1
activation=relu

[convolutional]
batch_normalize=1
filters=80
size=3
stride=1
pad=1
activation=relu

[shortcut]
from=-3
activation=linear

[convolutional]
batch_normalize=1
filters=39
size=1
stride=1
pad=1
activation=relu

[convolutional]
batch_normalize=1
filters=80
size=3
stride=1
pad=1
activation=relu

[shortcut]
from=-3
activation=linear

[convolutional]
batch_normalize=1
filters=39
size=1
stride=1
pad=1
activation=relu

[convolutional]
batch_normalize=1
filters=80
size=3
stride=1
pad=1
activation=relu

[shortcut]
from=-3
activation=linear

[convolutional]
batch_normalize=1
filters=39
size=1
stride=1
pad=1
activation=relu

[convolutional]
batch_normalize=1
filters=80
size=3
stride=1
pad=1
activation=relu

[shortcut]
from=-3
activation=linear

[convolutional]
batch_normalize=1
filters=202
size=3
stride=2
pad=1
activation=relu

[convolutional]
batch_normalize=1
filters=61
size=1
stride=1
pad=1
activation=relu

[convolutional]
batch_normalize=1
filters=202
size=3
stride=1
pad=1
activation=relu

[shortcut]
from=-3
activation=linear

[convolutional]
batch_normalize=1
filters=61
size=1
stride=1
pad=1
activation=relu

[convolutional]
batch_normalize=1
filters=202
size=3
stride=1
pad=1
activation=relu

[shortcut]
from=-3
activation=linear

[convolutional]
batch_normalize=1
filters=61
size=1
stride=1
pad=1
activation=relu

[convolutional]
batch_normalize=1
filters=202
size=3
stride=1
pad=1
activation=relu

[shortcut]
from=-3
activation=linear

[convolutional]
batch_normalize=1
filters=61
size=1
stride=1
pad=1
activation=relu

[convolutional]
batch_normalize=1
filters=202
size=3
stride=1
pad=1
activation=relu

[shortcut]
from=-3
activation=linear

[convolutional]
batch_normalize=1
filters=61
size=1
stride=1
pad=1
activation=relu

[convolutional]
batch_normalize=1
filters=202
size=3
stride=1
pad=1
activation=relu

[shortcut]
from=-3
activation=linear

[convolutional]
batch_normalize=1
filters=61
size=1
stride=1
pad=1
activation=relu

[convolutional]
batch_normalize=1
filters=202
size=3
stride=1
pad=1
activation=relu

[shortcut]
from=-3
activation=linear

[convolutional]
batch_normalize=1
filters=61
size=1
stride=1
pad=1
activation=relu

[convolutional]
batch_normalize=1
filters=202
size=3
stride=1
pad=1
activation=relu

[shortcut]
from=-3
activation=linear

[convolutional]
batch_normalize=1
filters=61
size=1
stride=1
pad=1
activation=relu

[convolutional]
batch_normalize=1
filters=202
size=3
stride=1
pad=1
activation=relu

[shortcut]
from=-3
activation=linear

[convolutional]
batch_normalize=1
filters=176
size=3
stride=2
pad=1
activation=relu

[convolutional]
batch_normalize=1
filters=89
size=1
stride=1
pad=1
activation=relu

[convolutional]
batch_normalize=1
filters=176
size=3
stride=1
pad=1
activation=relu

[shortcut]
from=-3
activation=linear

[convolutional]
batch_normalize=1
filters=89
size=1
stride=1
pad=1
activation=relu

[convolutional]
batch_normalize=1
filters=176
size=3
stride=1
pad=1
activation=relu

[shortcut]
from=-3
activation=linear

[convolutional]
batch_normalize=1
filters=89
size=1
stride=1
pad=1
activation=relu

[convolutional]
batch_normalize=1
filters=176
size=3
stride=1
pad=1
activation=relu

[shortcut]
from=-3
activation=linear

[convolutional]
batch_normalize=1
filters=89
size=1
stride=1
pad=1
activation=relu

[convolutional]
batch_normalize=1
filters=176
size=3
stride=1
pad=1
activation=relu

[shortcut]
from=-3
activation=linear

[convolutional]
batch_normalize=1
filters=89
size=1
stride=1
pad=1
activation=relu

[convolutional]
batch_normalize=1
filters=89
size=3
stride=1
pad=1
activation=relu

[convolutional]
batch_normalize=1
filters=89
size=1
stride=1
pad=1
activation=relu

[convolutional]
batch_normalize=1
filters=89
size=3
stride=1
pad=1
activation=relu

[convolutional]
batch_normalize=1
filters=89
size=1
stride=1
pad=1
activation=relu

[convolutional]
batch_normalize=1
filters=89
size=3
stride=1
pad=1
activation=relu

[convolutional]
batch_normalize=0
filters=24
size=1
stride=1
pad=1
activation=None

[yolo]
mask=6,7,8
anchors=… ; anchors=… ; anchors=… classes=4
num=9
jitter=.3
ignore_thresh=.7
truth_thresh=1
random=1

[route]
layers=-4

[convolutional]
batch_normalize=1
filters=142
size=1
stride=1
pad=1
activation=relu

[upsample]
stride=2, 32, 32

[route]
layers=-1, 61

[convolutional]
batch_normalize=1
filters=142
size=1
stride=1
pad=1
activation=relu

[convolutional]
batch_normalize=1
filters=142
size=3
stride=1
pad=1
activation=relu

[convolutional]
batch_normalize=1
filters=142
size=1
stride=1
pad=1
activation=relu

[convolutional]
batch_normalize=1
filters=142
size=3
stride=1
pad=1
activation=relu

[convolutional]
batch_normalize=1
filters=142
size=1
stride=1
pad=1
activation=relu

[convolutional]
batch_normalize=1
filters=142
size=3
stride=1
pad=1
activation=relu

[convolutional]
batch_normalize=0
filters=24
size=1
stride=1
pad=1
activation=None

[yolo]
mask=3,4,5
anchors=… ; anchors=… ; anchors=… classes=4
num=9
jitter=.3
ignore_thresh=.7
truth_thresh=1
random=1

[route]
layers=-4

[convolutional]
batch_normalize=1
filters=128
size=1
stride=1
pad=1
activation=relu

[upsample]
stride=2, 64, 64

[route]
layers=-1, 36

[convolutional]
batch_normalize=1
filters=128
size=1
stride=1
pad=1
activation=relu

[convolutional]
batch_normalize=1
filters=128
size=3
stride=1
pad=1
activation=relu

[convolutional]
batch_normalize=1
filters=128
size=1
stride=1
pad=1
activation=relu

[convolutional]
batch_normalize=1
filters=128
size=3
stride=1
pad=1
activation=relu

[convolutional]
batch_normalize=1
filters=128
size=1
stride=1
pad=1
activation=relu

[convolutional]
batch_normalize=1
filters=133
size=3
stride=1
pad=1
activation=relu

[convolutional]
batch_normalize=0
filters=24
size=1
stride=1
pad=1
activation=None

[yolo]
mask=0, 1, 2
anchors=… ; anchors=… ; anchors=… classes=4
num=9
jitter=.3
ignore_thresh=.7
truth_thresh=1
random=1

